…
"https://localhost:8080/"},"id":"5GGEYH3mDlVG","executionInfo":{"status":"ok","timestamp":1671420244632,"user_tz":300,"elapsed":21,"user":{"displayName":"Feifei Wang","userId":"12348858417878136259"}},"outputId":"3adeaa50-5386-495e-bd95-007ebe66d7aa"},"execution_count":29,"outputs":[{"output_type":"stream","name":"stdout","text":["Model: \"sequential_2\"\n","_________________________________________________________________\n"," Layer (type)                Output Shape              Param #   \n","=================================================================\n"," conv2d_6 (Conv2D)           (None, 222, 222, 32)      896       \n","                                                                 \n"," max_pooling2d_4 (MaxPooling  (None, 111, 111, 32)     0         \n"," 2D)                                                             \n","                                                                 \n"," conv2d_7 (Conv2D)           (None, 109, 109, 64)      18496     \n","                                                                 \n"," max_pooling2d_5 (MaxPooling  (None, 54, 54, 64)       0         \n"," 2D)                                                             \n","                                                                 \n"," conv2d_8 (Conv2D)           (None, 52, 52, 64)        36928     \n","                                                                 \n"," flatten_2 (Flatten)         (None, 173056)            0         \n","                                                                 \n"," dense_4 (Dense)             (None, 64)                11075648  \n","                                                                 \n"," dense_5 (Dense)             (None, 7)                 455       \n","                                                                 \n","=================================================================\n","Total params: 11,132,423\n","Trainable params: 11,132,423\n","Non-trainable params: 0\n","_________________________________________________________________\n"]}]},{"cell_type":"code","source":["model.compile(optimizer=tf.keras.optimizers.Adam(learn
…
